Project1/checkpoint.pth (torch_old, 28939 bytes, 7 tensors)

fc1.weight f4 [64, 37]
-0.1421185 0.033306528 -0.0124295205 -0.005372502 -0.12153421 0.20404036 -0.02917584 -0.0672419
0.029282073 -0.31842306 -0.09449075 -0.045475863 -0.11423786 -0.07495036 0.04684688 -0.036353853
0.1262011 0.12284269 -0.15181512 -0.31477356 0.13882892 0.049765527 0.023313504 0.038499545
-0.13676706 -0.0255636 0.14314196 0.04829526 -0.120885745 -0.1670806 0.057398926 -0.08731849
-0.090556756 0.09127353 0.041006505 -0.040039327 -0.0043212576 0.09916092 0.05288361 0.07350392
0.03931251 -0.02834983 -0.0728519 -0.115202166 -0.10323237 -0.080362596 0.023471104 0.049154986
-0.024436668 0.0031920269 0.027919592 0.073120564 0.029095069 -0.022987423 0.060337175 0.09098751
0.016725618 -0.13755652 -0.21997273 -0.014010086 0.078294925 0.67618334 -0.04408954 0.005950565
-0.016349971 0.054992717 0.00928904 0.04967728 0.16022111 0.05078932 -0.092466176 -0.3202262
0.0099657765 -0.0033411335 0.10932216 0.10518531 0.065797865 0.029320015 -0.093923435 -0.07422172
-0.09025861 0.11576305 0.17273654 0.32004318 0.037643492 0.026659917 -0.039721165 -0.03406877
0.0016337195 0.012681194 -0.010547701 0.067412555 0.1438602 0.10641395 -0.08307 -0.04926281
-0.0061107385 0.03822957 0.06121998 0.031895187 0.158051 0.005216509 -0.09717265 -0.22750548
-0.09845351 -0.04363084 -0.1438872 -0.05708143 0.033259075 0.023854485 0.011183575 0.14005138
0.05946344 0.057035867 0.06903128 -0.08226892 -0.031983543 0.007195453 0.06197533 0.085154764
0.12827088 -0.016338667 -0.007881983 0.034572255 -0.027918661 -0.018432295 -0.06278073 -0.042790256
-0.07289357 -0.061896723 -0.028242156 0.008183773 0.022549186 0.035528913 0.04945471 0.012213472
-0.009756901 -0.020093644 0.11302226 0.1518108 0.17346126 0.08337477 0.17213167 0.002984081
-0.03315573 -0.46561188 0.1360121 0.007048926 -0.08938997 -0.1281326 -0.12609172 -0.02469873
0.07037539 0.24993172 0.03285103 -0.13197756 -0.034668535 -0.19851212 -0.12869225 0.06238594
0.010771307 -0.02994672 -0.17960694 0.062148508 -0.09651613 -0.069468014 0.018823897 0.24718384
-0.03358032 0.051059265 0.040744856 -0.0065459884 0.03471068 0.08998134 -0.084685646 -0.009129903
0.07246917 0.3651437 0.12801597 -0.03721882 -0.07362604 0.03618072 0.07301042 -0.025289968
-0.010607695 -0.01969225 -0.04037656 0.001476882 0.029665574 0.09871418 0.18842638 0.16226499
-0.18664253 -0.09596968 -0.99569386 -0.11742105 0.001377403 -0.0059661088 -0.042821757 -0.061415594
0.004470826 -0.007939435 -0.006632627 -0.04133955 -0.15892088 -0.099277265 0.2001051 0.10798849
0.07657173 0.07421134 0.09441093 -0.03362478 -0.033844918 -0.01167213 0.05275549 -0.117858194
0.08495284 0.03551943 -0.14581965 -0.2904286 0.029492538 0.012095339 -0.013257663 0.06913084
-0.016697016 0.0020853828 -0.053273264 -0.043777872 -0.061437216 0.014232508 0.17553279 0.5980468
-0.0053906906 0.1272954 0.1092947 0.064878255 0.043728657 -0.059928 -0.070508316 0.02410136
0.07288743 0.14666104 -0.07911945 0.045484513 0.027132204 0.04020151 0.22424373 -0.017654924
-0.04869083 -0.14131668 -0.1073866 -0.15917426 0.11004242 0.011945352 -0.061828975 -0.12993716
00000000: 8387 11be 6d6c 083d 30a5 4bbc d00b b0bb
00000010: eee6 f8bd f5ef 503e 2c02 efbc 1fb6 89bd
00000020: f5e0 ef3c 5908 a3be 5e84 c1bd e644 3abd
00000030: 8af5 e9bd 937f 99bd 84e2 3f3d c7e7 14bd
00000040: dc3a 013e f394 fb3d 6c75 1bbe 002a a1be
00000050: 2b29 0e3e f0d6 4b3d f6fb be3c b3b1 1d3d
00000060: aa0c 0cbe c16a d1bc ce93 123e 40d1 453d
00000070: f292 f7bd 2d17 2bbe 231b 6b3d 09d4 b2bd
00000080: d275 b9bd 9eed ba3d 70f6 273d 4700 24bd
00000090: 5699 8dbb e114 cb3d 7c9c 583d 3989 963d
000000a0: 2806 213d e73d e8bc 6033 95bd 1def ebbd
000000b0: 7e6b d3bd 2595 a4bd 7946 c03c bd56 493d
000000c0: 682f c8bc 5331 513b a1b7 e43c 3cc0 953d
000000d0: c858 ee3c 1f50 bcbc 1d24 773d a957 ba3d
000000e0: 2a04 893c 9edb 0cbe 8840 61be 8f8a 65bc
000000f0: 1759 a03d 5a1a 2d3f 3c97 34bd f5fc c23b
00000100: 60f0 85bc 0b40 613d 0f31 183c 677a 4b3d
00000110: 0111 243e 7608 503d e85e bdbd b0f4 a3be
00000120: 7f47 233c ebf6 5abb 4ce4 df3d 656b d73d
00000130: 08c1 863d 8730 f03c ee5a c0bd 8f01 98bd
00000140: 82d9 b8bd 2e15 ed3d d9e1 303e b3dc a33e
00000150: 1030 1a3d e665 da3c a9b2 22bd b28b 0bbd
00000160: 8822 d63a c8c4 4f3c 44d0 2cbc 980f 8a3d
00000170: 1750 133e 8fef d93d 9b20 aabd cdc7 49bd
00000180: 973c c8bb 9c96 1c3d cdc1 7a3d 87a4 023d
00000190: 1fd8 213e 40ef aa3b 7402 c7bd 32f7 68be
000001a0: fea1 c9bd 40b6 32bd 2b57 13be 38ce 69bd
000001b0: ab3a 083d 7b6a c33c 503b 373c a169 0f3e
000001c0: f08f 733d 719e 693d 4660 8d3d 9c7c a8bd
000001d0: 2d01 03bd d6c7 eb3b d8d9 7d3d 9f65 ae3d
000001e0: 7159 033e abd8 85bc 6f23 01bc a39b 0d3d
000001f0: adb5 e4bc 53ff 96bc 2f93 80bd d644 2fbd
00000200: 3949 95bd 6b87 7dbd 185c e7bc 3b15 063c
00000210: 12b9 b83c c486 113d 0691 4a3d 041b 483c
00000220: 69db 1fbc 6d9b a4bc 3778 e73d 4a74 1b3e
00000230: d49f 313e 64c0 aa3d 4943 303e 9290 433b
00000240: 4ece 07bd ae64 eebe c246 0b3e adfa e63b
00000250: 1712 b7bd 3135 03be 301e 01be fe54 cabc
00000260: f920 903d 1aee 7f3e cd8e 063d 2025 07be
00000270: 9800 0ebd c346 4bbe e7c7 03be 6688 7f3d
00000280: 237a 303c d352 f5bc e2ea 37be 6f8f 7e3d
00000290: 40aa c5bd 3f45 8ebd 9334 9a3c c31d 7d3e
000002a0: 858b 09bd 8523 513d 14e4 263d bb7f d6bb
000002b0: c92c 0e3d 2348 b83d ab6f adbd 9795 15bc
000002c0: b76a 943d 1df4 ba3e 9e16 033e c372 18bd
000002d0: 40c9 96bd 3c32 143d 7d86 953d e82c cfbc
000002e0: e6cb 2dbc a451 a1bc e461 25bd f093 c13a
000002f0: 3805 f33c a92a ca3d d8f2 403e cb28 263e
00000300: 381f 3fbe c08b c4bd cbe5 7ebf 737a f0bd
00000310: fa89 b43a 597f c3bb de65 2fbd eb8e 7bbd
00000320: 0280 923b 6714 02bc 8256 d9bb a953 29bd
00000330: 28bc 22be e151 cbbd 5ae8 4c3e 1229 dd3d
00000340: a4d1 9c3d 1dfc 973d 855a c13d 23ba 09bd
00000350: f8a0 0abd 763c 3fbc 2416 583d a35f f1bd
00000360: c1fb ad3d d27c 113d bf51 15be 0fb3 94be
00000370: 569a f13c 872b 463c ab36 59bc 7894 8d3d
00000380: 2ec8 88bc ebaa 083b 1135 5abd 6d50 33bd
00000390: 97a5 7bbd 772f 693c debe 333e 9819 193f
000003a0: 64a4 b0bb ba59 023e e6d5 df3d e4de 843d
000003b0: d21c 333d 1077 75bd aa66 90bd 3770 c53c
000003c0: 0146 953d 502e 163e 6109 a2bd f84d 3a3d
000003d0: 5b44 de3c 57aa 243d 26a0 653e 0fa1 90bc
000003e0: 0970 47bd 52b5 10be 81ed dbbd 94fe 22be
000003f0: ec5d e13d 70b6 433c 6140 7dbd 3f0e 05be

fc1.bias f4 [64]
0.1440705 -0.030350897 -0.11735714 -0.042009767 0.17067175 -0.011204714 -0.033186108 0.10329495
0.029276734 -0.15105449 0.0655354 0.07122716 0.091022454 0.08753047 -0.0014595728 -0.0598587
0.018902386 0.0048720296 -0.009254031 -0.15857986 -0.10016599 0.06420489 -0.06299004 -0.06985243
-0.16581443 0.10406976 -0.07489528 -0.17645988 0.1202324 0.10923814 -0.11311934 -0.07449817
0.15557794 -2.9550953e-05 -0.12311689 0.083874516 -0.072071865 -0.0040332805 -0.026150322 -0.08708001
-0.08781239 -0.15588453 -0.20021811 0.15526725 0.017556457 -0.08686136 0.033007026 -0.13898928
-0.05203029 0.05714896 -0.122215025 0.062684245 0.012003022 -0.17170362 -0.19319496 0.019737473
0.09205989 -0.060048886 -0.11375837 -0.10137109 0.024348339 0.04735879 0.015340238 0.033034038
00000000: 3887 133e 72a2 f8bc f158 f0bd 6f12 2cbd
00000010: 93c4 2e3e fa93 37bc 28ee 07bd 4e8c d33d
00000020: c3d5 ef3c 07ae 1abe 6c37 863d 8cdf 913d
00000030: fb69 ba3d 2d43 b33d 234f bfba 652e 75bd
00000040: 2dd9 9a3c 8ca5 9f3b 389e 17bc c262 22be
00000050: d423 cdbd da7d 833d ec00 81bd ca0e 8fbd
00000060: 42cb 29be 8722 d53d b262 99bd e6b1 34be
00000070: 683c f63d 3fb8 df3d 1dab e7bd 7f92 98bd
00000080: d34f 1f3e 30e4 f7b7 b524 fcbd 67c6 ab3d
00000090: 6a9a 93bd 9c29 84bb 3339 d6bc 0157 b2bd
000000a0: fbd6 b3bd 32a0 1fbe fa05 4dbe 61fe 1e3e
000000b0: 8fd2 8f3c 5ee4 b1bd 6032 073d 3553 0ebe
000000c0: b71d 55bd 0715 6a3d df4b fabd 9960 803d
000000d0: 53a8 443c 13d3 2fbe e6d4 45be 7bb0 a13c
000000e0: e589 bc3d d2f5 75bd 26fa e8bd a59b cfbd
000000f0: 2b76 c73c 4afb 413d 9f55 7b3c b34e 073d

fc2.weight f4 [64, 64]
0.03284928 0.028372448 0.020790044 0.06790573 0.09361427 -0.13161118 0.098638035 0.08138782
0.025800303 0.112022184 -0.040671185 -0.0864911 0.003046073 0.11551985 -0.05563506 0.010901908
-0.05159531 -0.16984442 0.06995978 -0.0076181665 -0.09709085 -0.019139381 0.045552883 -0.16179809
-0.089446135 0.059066676 0.17080659 0.0062409425 -0.041731503 -0.007923153 0.06469198 -0.015545619
0.14333211 0.08216971 0.17826335 0.026046371 -0.02981737 0.0628343 0.099608414 -0.08176173
-0.093882814 0.0070547974 0.040287558 -0.03091079 0.17611144 -0.016921718 -0.14337577 -0.018813578
-0.045317844 -0.05817205 0.01379314 -0.15060695 -0.09427237 -0.24888237 0.12904273 0.036637165
-0.12898949 0.04438379 -0.07840543 0.050412927 0.019022126 0.11012824 -0.06782079 -0.053508062
0.04805751 0.146147 -0.07359992 0.31626812 0.07717002 0.091857135 -0.12259964 0.021774525
-0.044385348 -0.17360877 0.12620234 0.094185114 -0.032501362 -0.06112195 0.021205835 -0.02075219
0.156736 0.019157313 -0.10584858 -0.034708384 -0.04407256 0.001704016 0.049864557 -0.09869506
0.0050039184 0.029344367 -0.07068515 -0.09490618 -0.023576558 0.05321663 0.05276524 -0.11371934
-0.025166752 0.13277468 0.016566044 -0.11408035 0.06578651 0.025759546 0.06947094 0.011812831
-0.10074834 0.02044015 -0.04905884 -0.14921744 -0.07843509 -0.14031297 -0.035455875 -0.12365743
-0.060025513 -0.08148715 -0.102209866 0.14162503 -0.02506439 -0.07154486 0.00866448 0.048359115
-0.0045117806 -0.008133547 0.18529104 0.04745932 -0.1657749 -0.053212736 -0.012784173 -0.0221194
-0.14077759 -0.060628466 -0.03900528 0.02474062 0.017147142 0.06821845 -0.06453317 -0.03277665
0.14494646 -0.107578486 0.041404434 0.064831875 0.046371605 0.090955496 0.083675444 -0.086518146
-0.083153255 -0.031080687 0.040553734 -0.04408687 -0.10665614 0.05289389 -0.011531482 0.038580526
-0.04044223 0.089366294 0.12672901 0.16683874 -0.0449728 0.09605965 0.09575161 0.017059436
-0.077078134 -0.0008747663 -0.08440331 0.08476388 0.18864857 0.08899941 0.009220017 0.10422452
0.055324715 -0.08706358 -0.06613251 -0.19059068 -0.023949685 0.067651816 0.07451135 -0.15164483
-0.02956249 -0.11673447 -0.22098505 0.020236004 -0.03737813 0.02601072 -0.102671035 -0.040316537
0.0060873413 -0.11563933 0.20715654 0.09844238 -0.06848514 -0.000450474 0.043815166 0.021096375
0.0075988336 -0.10802423 0.061517127 -0.20249946 0.013217796 -0.045337494 -0.1065978 -0.055827376
-0.16541548 -0.016776577 -0.08477722 0.08022106 -0.03197692 0.087662674 0.07711791 0.0006876757
0.011031587 -0.061427645 -0.03671395 -0.047473937 0.049382716 0.11307044 0.024746435 0.24091238
0.07986812 -0.07382238 0.10407121 -0.043805912 0.1258539 -0.21196352 0.025670558 -0.039239466
-0.0236149 -0.0042279153 0.12484167 0.021110138 -0.15392725 0.11137576 0.07792133 -0.10404855
-0.015295178 0.10145911 -0.04404942 0.018209008 0.012392701 0.0465004 0.1170594 -0.03636307
0.0656558 0.1023732 -0.06756418 0.055299986 0.08265503 -0.02857772 -0.07306476 0.11515501
-0.05482094 -0.13384216 -0.09511887 0.057226565 -0.041364424 0.040312767 -0.10604993 0.047916733
00000000: f78c 063d 566d e83c e24f aa3c 2912 8b3d
00000010: d7b8 bf3d 15c5 06be bd02 ca3d a8ae a63d
00000020: 285b d33c e36b e53d d496 26bd 3f22 b1bd
00000030: a0a0 473b ac95 ec3d 97e1 63bd eb9d 323c
00000040: 9b55 53bd b2eb 2dbe 1347 8f3d d0a1 f9bb
00000050: 91d7 c6bd 31ca 9cbc a995 3a3d 66ae 25be
00000060: 892f b7bd e6ef 713d ece7 2e3e d280 cc3b
00000070: a7ee 2abd 1dd0 01bc 3b7d 843d 0db3 7ebc
00000080: a7c5 123e 9848 a83d ab8a 363e 335f d53c
00000090: 8f43 f4bc 45af 803d 7fff cb3d b272 a7bd
000000a0: a245 c0bd ee2b e73b 9104 253d a038 fdbc
000000b0: 8f56 343e 6a9f 8abc 19d1 12be ef1e 9abc
000000c0: 349f 39bd d145 6ebd 9ffc 613c b538 1abe
000000d0: df11 c1bd 05db 7ebe c723 043e da10 163d
000000e0: d215 04be c7cb 353d 0793 a0bd c97d 4e3d
000000f0: 4ad4 9b3c ea8a e13d a0e5 8abd 452b 5bbd
00000100: f4d7 443d 8fa7 153e 8ebb 96bd e5ed a13e
00000110: 510b 9e3d 981f bc3d 8515 fbbd 7d60 b23c
00000120: 69cd 35bd 7fc6 31be 303b 013e 20e4 c03d
00000130: 2620 05bd 035b 7abd dcb7 ad3c 7f00 aabc
00000140: 677f 203e ccef 9c3c 24c7 d8bd 612a 0ebd
00000150: 6e85 34bd 4a59 df3a c73e 4c3d a320 cabd
00000160: e9f7 a33b 9963 f03c 60c3 90bd 2c5e c2bd
00000170: a023 c1bc aef9 593d 5d20 583d afe5 e8bd
00000180: 812a cebc 16f6 073e 83b5 873c f5a2 e9bd
00000190: 14bb 863d af05 d33c c846 8e3d 9b8a 413c
000001a0: 2555 cebd 1a72 a73c ecf1 48bd 75cc 18be
000001b0: 94a2 a0bd 34ae 0fbe 2e3a 11bd 1b40 fdbd
000001c0: 50dd 75bd bce2 a6bd 6853 d1bd 2706 113e
000001d0: d653 cdbc 1d86 92bd 77f5 0d3c 3514 463d
000001e0: 8fd7 93bb 9242 05bc efbc 3d3e b464 423d
000001f0: e5c0 29be 99f5 59bd b574 51bc be33 b5bc
00000200: 0028 10be 8e55 78bd 00c4 1fbd d7ac ca3c
00000210: 2a78 8c3c 1db6 8b3d f729 84bd cf40 06bd
00000220: d86c 143e 1c52 dcbd b297 293d 93c6 843d
00000230: 27f0 3d3d e046 ba3d 085e ab3d 6d30 b1bd
00000240: 414c aabd ed9c febc ac1b 263d 6f94 34bd
00000250: 896e dabd 43a7 583d 8bee 3cbc 9d06 1e3d
00000260: c0a6 25bd ad05 b73d 40c5 013e c6d7 2a3e
00000270: 6635 38bd ecba c43d 6c19 c43d 3bc0 8b3c
00000280: 24db 9dbd 9350 65ba a5db acbd af98 ad3d
00000290: 172d 413e 5345 b63d 8e0f 173c aa73 d53d
000002a0: 2b9c 623d 644e b2bd 7b70 87bd 342a 43be
000002b0: 2132 c4bc 098d 8a3d 6899 983d c848 1bbe
000002c0: 092d f2bc 7b12 efbd e849 62be fac5 a53c
000002d0: cf19 19bd 6f14 d53c 3145 d2bd f422 25bd
000002e0: 5278 c73b 50d4 ecbd d820 543e 299c c93d
000002f0: f041 8cbd 992d ecb9 8877 333d 4ed2 ac3c
00000300: a3ff f83b cf3b ddbd 62f9 7b3d 055c 4fbe
00000310: 748f 583c cfb3 39bd f34f dabd 3fab 64bd
00000320: ad62 29be 086f 89bc ae9f adbd f04a a43d
00000330: 3bfa 02bd 7d88 b33d ffef 9d3d 2345 343a
00000340: d4bd 343c 8e9b 7bbd 5e61 16bd 0874 42bd
00000350: 8845 4a3d 7a91 e73d 09b9 ca3c bcb1 763e
00000360: e691 a33d 3030 97bd 4923 d53d d46d 33bd
00000370: d8df 003e f70c 59be 104b d23c 90b9 20bd
00000380: 0974 c1bc 538a 8abb fdac ff3d 2bef ac3c
00000390: 1b9f 1dbe f918 e43d 3895 9f3d 6817 d5bd
000003a0: a098 7abc cbc9 cf3d 2a6d 34bd 0f2b 953c
000003b0: c10a 4b3c 3477 3e3d d7bc ef3d 71f1 14bd
000003c0: 8c76 863d 0aa9 d13d 175f 8abd 3d82 623d
000003d0: 0a47 a93d d31b eabc faa2 95bd 64d6 eb3d
000003e0: ec8b 60bd eb0d 09be afcd c2bd 6766 6a3d
000003f0: be6d 29bd 001f 253d b530 d9bd 5644 443d

fc2.bias f4 [64]
-0.08943384 -0.1261419 0.050325282 -0.010606758 0.10465003 -0.117930904 -0.14977065 0.041855257
0.09493719 0.09471536 -0.036742073 0.18918392 0.00866992 0.020676041 0.01628086 0.07810791
-0.10303143 -0.062420737 -0.13529867 0.092983216 0.054089393 0.23891647 0.026711628 -0.11101158
-0.08599918 -0.033003695 -0.015117675 -0.18631628 0.010923168 -0.015883924 -0.0284078 -0.066260345
0.041147172 -0.0050777853 0.039985694 -0.05752249 -0.00093598757 -0.39731583 -0.11935297 -0.13031228
-0.10567259 0.04314336 0.123999126 -0.106179945 0.044708334 -0.3072833 -0.024746696 -0.12551665
0.13626648 -0.15435588 -0.05584002 0.09286806 -0.18955731 -0.07073797 0.027175054 -0.19863302
-0.1968174 -0.18989313 0.04019789 -0.13621444 -0.027861934 0.04223334 0.059343766 -0.36874703
00000000: 1729 b7bd 582b 01be e221 4e3d f8c7 2dbc
00000010: c152 d63d c285 f1bd 7a5d 19be 6b70 2b3d
00000020: 6e6e c23d 20fa c13d db7e 16bd 6eb9 413e
00000030: 480c 0e3c cd60 a93c 705f 853c 0af7 9f3d
00000040: 2402 d3bd e3ac 7fbd bc8b 0abe fc6d be3d
00000050: d78c 5d3d 85a6 743e 58d2 da3c 0a5a e3bd
00000060: 5720 b0bd e22e 07bd 20b0 77bc b2c9 3ebe
00000070: 16f7 323c 011f 82bc 79b7 e8bc 81b3 87bd
00000080: f089 283d 8d63 a6bb 0ac8 233d b49c 6bbd
00000090: 105d 75ba fb6c cbbe 546f f4bd 9570 05be
000000a0: df6a d8bd 18b7 303d 41f3 fd3d df74 d9bd
000000b0: 1620 373d 3d54 9dbe 95b9 cabc 7087 00be
000000c0: 7189 0b3e 780f 1ebe 81b8 64bd 9c31 be3d
000000d0: 501b 42be 12df 90bd 389e de3c 7466 4bbe
000000e0: 808a 49be 5873 42be 8ba6 243d cc7b 0bbe
000000f0: b63e e4bc defc 2c3d 7312 733d 69cc bcbe

advantage_value.weight f4 [4, 64]
-0.051298585 0.09180173 0.06074141 0.0099661965 0.029562721 -0.008767103 0.09853582 0.009753367
-0.024052365 0.045689266 0.038255848 -0.00065487326 0.009932162 -0.01666141 -0.042928115 -0.009938223
-0.0027252822 0.00419837 -0.0111655025 0.021327347 -0.0014902806 0.046426877 -0.046726212 0.049560986
-0.047165968 -0.088823475 0.017726263 -0.1363202 -0.021984922 0.040255666 -0.16157566 -0.0013831757
-0.023432745 -0.019919258 0.0084584495 -0.0006037324 0.124017805 -0.10839972 0.039911445 0.039295033
0.016544461 0.08261632 -0.07202778 0.008037997 0.021083472 -0.06780103 0.033260252 0.0055813952
0.007646765 -0.009505171 -0.008353988 0.0516127 0.10489779 -0.00029390297 0.03248342 0.0867244
-0.049479432 -0.041310772 -0.0052995803 0.00962179 -0.12334242 0.020312024 -0.0032894174 -0.10289758
-0.0237887 0.096231006 0.057969593 0.014658265 0.04874721 -0.015272919 0.055888556 0.017104322
-0.030903818 0.04810409 0.044503946 0.012648508 0.07618483 -0.020523032 -0.064083055 -0.02429759
0.029845173 -0.0018253567 -0.022186445 0.026829755 -0.0012529858 0.056252625 -0.05572268 0.057795867
-0.011016257 -0.07783287 0.047683332 -0.08293795 -0.014559454 0.033985164 -0.07926487 -0.016360052
-0.038883135 -0.029003149 0.010311763 0.0070483917 0.0972584 -0.09377618 0.0054562907 0.018397294
0.03250144 0.08116921 -0.11790598 -0.010871037 0.014065157 -0.06578315 0.040813237 -0.0034325973
0.0009276623 -0.016296797 -0.015179441 0.051540654 0.04560161 0.00055334595 0.04357362 0.01372669
-0.058096178 -0.048360154 -0.0017463343 -0.06363927 -0.11321122 0.00057366857 -0.0037648228 -0.059566163
0.040388957 0.081129715 0.037152633 -0.027152838 0.034450885 -0.0025559445 0.10836719 0.005802897
-0.020276207 0.04587318 0.04269322 0.006042346 -0.01594344 -0.016002923 -0.043299202 -0.003907625
-0.1953886 0.011298732 -0.02552315 0.023064109 0.0006817242 0.023711627 -0.041971 0.042182248
0.005213532 -0.09183126 -0.07409902 0.07904746 -0.025393607 0.04066466 0.048007775 -0.0069015087
-0.02739812 -0.021417433 -0.0027858035 8.774721e-05 -0.05332343 -0.031787448 0.055231698 -0.14356318
-0.18052319 0.080018274 0.057683785 0.030894184 0.0180655 -0.1755423 0.036701158 -0.11852659
0.009731975 -0.015663948 -0.30095363 0.050453436 -0.1619181 0.004365116 -0.0973185 0.06875067
-0.268316 -0.0069225673 0.023224514 -0.1691381 -0.029727532 0.014237857 0.0010267246 -0.07778132
0.039929498 -0.12417854 -0.15672643 -0.085099205 0.03181499 -0.007137981 -0.21329866 0.0009083326
-0.025788367 0.037618097 0.03952735 0.000110808964 0.007018791 -0.01675783 -0.043783523 -0.007761242
0.02903155 -0.24833335 0.019512536 0.01787354 -0.00012547395 0.09736817 -0.04587421 0.04537557
-0.2995563 -0.09028423 0.0062808082 0.02110391 -0.023610566 0.03934924 0.12535997 -0.0071942727
-0.030204779 -0.016277073 -0.04316402 0.0012305368 -0.04508274 -0.26079485 0.047084004 0.019749604
-0.049706783 0.079307154 0.06925381 -0.18966745 0.012828845 -0.019228423 0.03436388 0.0135216145
0.0056847287 -0.010905623 0.042561017 0.0451676 0.05337514 0.0053602257 0.08784098 -0.19748507
-0.04581566 -0.014601504 -0.060015924 -0.029092526 -0.020040242 -0.18665913 -0.0016303334 -0.045819193
00000000: 771e 52bd 8c02 bc3d fccb 783d 4249 233c
00000010: 852d f23c e5a3 0fbc 26cd c93d 96cc 1f3c
00000020: 7709 c5bc ab24 3b3d 2ab2 1c3d cdab 2bba
00000030: 82ba 223c 827d 88bc 64d5 2fbd eed3 22bc
00000040: a69a 32bb 7b92 893b 83ef 36bc b0b6 ae3c
00000050: 8555 c3ba 1c2a 3e3d fc63 3fbd 7600 4b3d
00000060: 1a31 41bd 15e9 b5bd ab36 913c 8697 0bbe
00000070: b919 b4bc 20e3 243d 1774 25be ad4b b5ba
00000080: 07f6 bfbc b62d a3bc 4f95 0a3c cc43 1eba
00000090: 0cfd fd3d ac00 debd 2f7a 233d d4f3 203d
000000a0: 4088 873c bf32 a93d 4d83 93bd ceb1 033c
000000b0: 3fb7 ac3c 44db 8abd e73b 083d 23e4 b63b
000000c0: b791 fa3b 94bb 1bbc 2adf 08bc d767 533d
000000d0: a7d4 d63d fd16 9ab9 560d 053d 909c b13d
000000e0: f2aa 4abd 7c35 29bd 1aa8 adbb b6a4 1d3c
000000f0: f39a fcbd 6765 a63c 4493 57bb f7bb d2bd
00000100: 85e0 c2bc c314 c53d 8671 6d3d 3829 703c
00000110: 28ab 473d 443b 7abc 66eb 643d 5d1e 8c3c
00000120: 012a fdbc cb08 453d c549 363d b03b 4f3c
00000130: cb06 9c3d eb1f a8bc fa3d 83bd bd0b c7bc
00000140: dd7d f43c cf40 efba 59c0 b5bc 13ca db3c
00000150: 3a3b a4ba 2769 663d 773d 64bd 5cbb 6c3d
00000160: 887d 34bc d766 9fbd 994f 433d 5fdb a9bd
00000170: c78a 6ebc 0734 0b3d 9f55 a2bd 8405 86bc
00000180: ec43 1fbd 0398 edbc abf2 283c 32f6 e63b
00000190: 692f c73d ba0d c0bd afca b23b ecb5 963c
000001a0: 3b20 053d 0b3c a63d b178 f1bd 6f1c 32bc
000001b0: 8b71 663c 51b9 86bd c82b 273d 6df5 60bb
000001c0: 5d2e 733a dc80 85bc 31b3 78bc 4b1c 533d
000001d0: c1c8 3a3d 6b0e 113a 417a 323d e9e5 603c
000001e0: 42f6 6dbd 4c15 46bd 41e5 e4ba 4e55 82bd
000001f0: 49db e7bd 3f62 163a 3fbb 76bb a6fb 73bd
00000200: e46e 253d 5627 a63d 5c2d 183d a16f debc
00000210: 5f1c 0d3d a281 27bb 9eef dd3d 3a26 be3b
00000220: 4a1a a6bc 84e5 3b3d 16df 2e3d dffe c53b
00000230: d19b 82bc 9018 83bc 815a 31bd 890b 80bb
00000240: f313 48be 511e 393c ed15 d1bc f1f0 bc3c
00000250: bdb5 323a e33e c23c c9e9 2bbd 4bc7 2c3d
00000260: 47d6 aa3b 0712 bcbd 3ac1 97bd a2e3 a13d
00000270: 4106 d0bc fd8f 263d cda3 443d 0d26 e2bb
00000280: 0672 e0bc 9d73 afbc 0792 36bb ed04 b838
00000290: ab69 5abd 8e33 02bd a23a 623d 3a02 13be
000002a0: 12db 38be 9fe0 a33d d545 6c3d cd15 fd3c
000002b0: 19fe 933c 5cc1 33be f453 163d 12be f2bd
000002c0: dd72 1f3c ae51 80bc 9816 9abe 43a8 4e3d
000002d0: dccd 25be 3f09 8f3b ec4e c7bd 27cd 8c3d
000002e0: b760 89be b4d6 e2bb 5641 be3c 8a32 2dbe
000002f0: 2787 f3bc e745 693c 2993 863a d04b 9fbd
00000300: 1d8d 233d 5251 febd e57c 20be 7e48 aebd
00000310: 6f50 023d b9e5 e9bb f76a 5abe 2b1d 6e3a
00000320: 2042 d3bc 6f15 1a3d 6ee7 213d 1c62 e838
00000330: e3fd e53b b747 89bc 5a56 33bd 0452 febb
00000340: 93d3 ed3c 194b 7ebe c1d8 9f3c 886b 923c
00000350: a891 03b9 f768 c73d 98e6 3bbd bcdb 393d
00000360: 715f 99be f0e6 b8bd 3dcf cd3b 1be2 ac3c
00000370: f26a c1bc ab2c 213d 5d5e 003e efbd ebbb
00000380: 0370 f7bc 7f57 85bc c1cc 30bd f749 a13a
00000390: aea8 38bd e786 85be 28db 403d ecc9 a13c
000003a0: 5799 4bbd ca6b a23d f1d4 8d3d 2f38 42be
000003b0: 1330 523c ed84 9dbc 24c1 0c3d c389 5d3c
000003c0: f646 ba3b 80ad 32bc 7654 2e3d a901 393d
000003d0: e49f 5a3d d5a4 af3b f9e5 b33d 8739 4abe
000003e0: 34a9 3bbd 263b 6fbc 42d3 75bd 7353 eebc
000003f0: 6f2b a4bc 9223 3fbe e9b0 d5ba e8ac 3bbd

advantage_value.bias f4 [4]
0.12773845 0.11592855 0.076763436 0.07355208
00000000: decd 023e f36b ed3d 2636 9d3d 79a2 963d

state_value.weight f4 [1, 64]
-0.091061786 -0.11956954 -0.13069798 -0.08063342 -0.023020757 0.0036907783 -0.16408661 -0.007521983
0.020217162 -0.027567536 -0.030873109 0.0007461085 -0.019416021 0.012113072 0.03367495 0.011169202
-0.16849943 -0.06260871 0.0007861529 -0.016732456 0.00049499905 -0.0059048785 0.03409176 -0.03998445
-0.07058972 0.061716042 -0.10172164 -0.064873464 0.019465053 -0.033778958 -0.10970318 0.0020099373
0.025325304 0.01343371 -0.014230572 -0.003153807 0.14874367 -0.17791438 -0.122606725 -0.13204913
-0.08744056 -0.061080012 -0.013917299 -0.09517749 -0.017726056 -0.18926401 -0.027707875 -0.07914071
-0.0021972593 0.008392623 -0.12665859 -0.038356777 -0.16121253 -0.0043995525 -0.12324437 -0.14933053
-0.06347597 -0.054297876 0.031015046 -0.08231677 -0.043885097 -0.09841046 0.0011295233 -0.29626572
00000000: 9a7e babd e0e0 f4bd b1d5 05be 2223 a5bd
00000010: 0796 bcbc fce0 713b 5206 28be f77a f6bb
00000020: 769e a53c 50d5 e1bc 9ae9 fcbc 7e96 433a
00000030: 590e 9fbc e875 463c bfee 093d 07ff 363c
00000040: 1d8b 2cbe ff38 80bd d415 4e3a 8112 89bc
00000050: d3c2 013a b67d c1bb cda3 0b3d bcc6 23bd
00000060: 5891 90bd f6c9 7c3d 6f53 d0bd 61dc 84bd
00000070: 2d75 9f3c ce5b 0abd 10ac e0bd 27b9 033b
00000080: 0377 cf3c 1019 5c3c 5827 69bc 1ab0 4ebb
00000090: 4350 183e 302f 36be 3c19 fbbd e337 07be
000000a0: 0914 b3bd 092f 7abd 6205 64bc 6aec c2bd
000000b0: 3c36 91bc 6dce 41be a0fb e2bc 8614 a2bd
000000c0: e5ff 0fbb 3681 093c cab2 01be ff1b 1dbd
000000d0: e614 25be 1f2a 90bb 8b67 fcbd 1aea 18be
000000e0: b0ff 81bd 7367 5ebd 4413 fe3c b295 a8bd
000000f0: dcc0 33bd 6c8b c9bd 830c 943a 24b0 97be
